rnn_model_weights.pth (torch, 138738 bytes, 7 tensors)

rnn.weight_ih_l0 f4 [128, 32]
00000000: 32c2 8c3e 5755 a8bc 49ac e73e 7fd0 153f
00000010: fb3b 2dbe 0c05 a2be 2052 e33e b6eb 05bf
00000020: cb3f 9e3e 3230 3dbe bd83 dd3d fefd 273d
00000030: f555 45be c83d d5bd 717c 7f3e cb52 cdbe
00000040: 22f4 f03e 7eb1 9f3c a008 33be 1f8d 15be
00000050: fd11 20bd bdfa 553e 6a59 b4be a95a 81be
00000060: 8ff1 2f3f 0837 033f 6048 893e 38d2 14bf
00000070: f11f 803e 1806 0a3d 8dca 353f 8b38 9abe
00000080: b02e c53e e0b2 0ebf 8a43 a13e 4766 423e
00000090: 929a 78bd 5c85 81be 40e3 30bf dfd9 013f
000000a0: d596 99be c405 94be cd7a 663e 9594 c43e
000000b0: 0d0f bc3e c080 28bd b8b2 f43d 7f5f c7bd
000000c0: 0434 e53e 3c77 0b3c a0fc 3abe 51d7 b73d
000000d0: b80d a6bd b7f8 b1bd ffd9 6f3b b74e b63e
000000e0: 07f3 5c3f 1002 db3d 4ebd a43e 5105 23bd
000000f0: fb3e 6c3e b5a5 4f3e b457 893e 6258 e03e
00000100: da73 813d 462b 903b b651 6d3c 368a a93e
00000110: be5b 6d3e d46e a3bc bf89 b53e 4879 cabe
00000120: 0ed1 043f 6aff b5bc 5a2a 82be ebb3 16be
00000130: 1d9e dbbe d0df e6bd 75e2 66bd ca5b 0a3e
00000140: 3772 d5bc 09d8 803e f1e9 a8be 4aa3 6e3e
00000150: 423a ca3e 6d1f 873c 0887 c53e 3909 f43e
00000160: dd4f 75be c997 f03e 03ca ccbe c82d cabe
00000170: a314 193f 4e6c 923e ab5e d63e 7648 c0bd
00000180: 9621 8c3e 0685 52be 610d afbe 4cdb c53e
00000190: 8a60 16bf 02d7 0ebf bcb3 cebe 56e3 a73e
000001a0: bb05 253e b499 a2be da81 003e 2d6a 89bd
000001b0: 8705 1fbd 2994 8d3d cfea 8abe 9902 97be
000001c0: 2492 53bd 5d62 003f 9ffe b53d fe19 373f
000001d0: 5eb4 00bf 85a6 4bbf bcbe 87be 3be5 e3be
000001e0: 1c8e f43d 0ee7 963e d4a9 123f 3c4c f03a
000001f0: 2b07 6e3c 0c38 fe3e 6914 473e d2eb 3d3e
00000200: 2ccf 113d 2c78 c5be 3ab7 d93e 770c d9be
00000210: 1b02 413f 37d2 be3e f2c6 69be a688 c8bb
00000220: 9026 2b3e 2ca1 d8be fbe4 c5be d58d 8bbe
00000230: 2325 133e b018 8a3e 8d9d c4bd 5bef 37bf
00000240: d6a9 893e 14a7 8bbe 012d 43bf 0ba1 c9be
00000250: b01d eabe 23ee 8dbe 4a06 b1bd 73cb 7c3e
00000260: 4055 b83d abbf a1be 24b5 1dbe 771e c23e
00000270: 8444 2dbf d4d6 2cbf 42a6 b03b 73c1 13bd
00000280: 2ddb 113e 56d2 c4bd 4271 393e 868d dd3e
00000290: f67f 6ebd c520 ffbe aa84 4e3e a707 9c3e
000002a0: 7d41 0a3f 9192 8c3e 6461 833e bd96 1dbe
000002b0: 2d6f 86be ef70 09bf 1829 59bb 7a95 bd3d
000002c0: fbb1 0c3d 907e acbe 08ab af3e c126 36be
000002d0: 94b8 58be 7d75 aa3d a6b8 a2be 23bf 8fbe
000002e0: 89cc 273f a7a6 923e 0787 963f b567 1abe
000002f0: 2cc6 b33e 83d1 f33d caca 583e dd9d 9abd
00000300: 52c3 abbe ca20 133f e171 f63e aad0 303d
00000310: acda 0b3f 6ffc 383f a606 28be 027f 5a3e
00000320: 5470 e83c 36c3 c2be e09e bcbd 4629 fe3e
00000330: 56d6 003f ed62 143e cd4f 30be a8dd 393e
00000340: a2eb 86be 7d6c dfbe 9219 5c3e ec26 48be
00000350: 7a7f fbbd 49ae 883e a94c 3ebe 6d5e e1bc
00000360: 2636 bebd 7e02 63be aa7f 5dbe e52e 343e
00000370: 959f 18be dec7 31be c53f 8fbb 2fa2 5f3e
00000380: a9c5 8e3e 92ee 45bd 6a7b 1e3e 4ef1 c5be
00000390: 3156 693d b29a fd3e 3ba3 df3b d249 aa3e
000003a0: df2a 41bd 04bc 11be 6b2b 2dbd df11 48bd
000003b0: f251 d2bd 4df8 983e 9699 e23e 8a99 a63d
000003c0: a1d4 113f d002 2fbe ca31 02be 0ad4 00bf
000003d0: 8d05 8cbe 52ec ca3e 201b 5d3e 2b98 dfbe
000003e0: abef 1c3e f938 d43e 8b63 ba3d 8a07 91bd
000003f0: f4cd 193e c46d 8e3c 76d5 bdbd 6b0b 313e
0.2749191 -0.020548506 0.4524863 0.58521265 -0.16917412 -0.31644475 0.44398594 -0.5231279
0.30908045 -0.18475416 0.10816143 0.04101371 -0.19271071 -0.104121745 0.24949814 -0.4010223
0.4706126 0.019493815 -0.17483759 -0.14604615 -0.039079655 0.2089643 -0.35224468 -0.2526448
0.68727964 0.51255846 0.2681303 -0.5813327 0.2502437 0.033697218 0.7101219 -0.30121264
0.38512182 -0.5574169 0.3149684 0.18984328 -0.060694285 -0.25297058 -0.69096756 0.5072307
-0.29997888 -0.2891065 0.22507782 0.3839461 0.36730233 -0.04113841 0.119481504 -0.09735011
0.44766247 0.008512314 -0.18260431 0.08976615 -0.081080854 -0.08690017 0.0036598442 0.3560693
0.8630833 0.10693753 0.32175678 -0.039799992 0.230709 0.20278056 0.26824725 0.4381743
0.06320925 0.00439969 0.014484813 0.3311326 0.23179528 -0.019950308 0.35456654 -0.39545655
0.5188149 -0.022216517 -0.25422937 -0.14717071 -0.42894068 -0.112731576 -0.05636831 0.13511577
-0.026055438 0.25164822 -0.32990983 0.23304477 0.39497572 0.016494477 0.38579583 0.47663286
-0.23956247 0.46990803 -0.39997873 -0.39488053 0.59797114 0.28598255 0.418691 -0.09388821
0.27369374 -0.20558557 -0.34189895 0.38643873 -0.58741057 -0.55796826 -0.403715 0.3279063
0.16115467 -0.3175789 0.12549534 -0.067097045 -0.03882363 0.06913025 -0.2713227 -0.2949417
-0.051653042 0.5015009 0.08886456 0.71524036 -0.5027522 -0.79550964 -0.26512706 -0.44510826
0.11941168 0.29473156 0.5729039 0.0018333266 0.014528076 0.49652135 0.1944138 0.1854699
0.035597965 -0.38568246 0.42522603 -0.42392322 0.7539384 0.37269756 -0.22829798 -0.0061198054
0.16713929 -0.42310464 -0.3865126 -0.27256647 0.14369635 0.2697196 -0.09600363 -0.718496
0.26887387 -0.27275908 -0.76240546 -0.3938068 -0.45725775 -0.27720746 -0.08643778 0.24686985
0.09000635 -0.31591544 -0.15401131 0.37913868 -0.6768267 -0.675153 0.005390913 -0.03607316
0.14243765 -0.09610431 0.1810961 0.43272036 -0.0582275 -0.4982969 0.20167795 0.30474588
0.5400618 0.2745557 0.2566024 -0.15389533 -0.26256695 -0.5368795 -0.0033136066 0.09257026
0.034349423 -0.3369031 0.34310174 -0.17788221 -0.21164161 0.0832319 -0.317815 -0.28075513
0.6554647 0.2864277 1.1759957 -0.15078624 0.3511213 0.119051956 0.21171108 -0.07549641
-0.33547455 0.5747191 0.48133758 0.043167748 0.5463054 0.72260183 -0.16408786 0.21337512
0.028373875 -0.3803956 -0.092099905 0.49640864 0.5032705 0.14490862 -0.17217942 0.18150961
-0.2635165 -0.43637457 0.2149413 -0.19546098 -0.122801736 0.2669547 -0.18583931 -0.027510846
-0.09287672 -0.2216892 -0.21630731 0.17596014 -0.14904626 -0.173614 -0.0043716156 0.21839212
0.27885178 -0.04832322 0.15476766 -0.38660663 0.056966964 0.49532086 0.0068248785 0.33259445
-0.047160026 -0.14231879 -0.042277735 -0.04884517 -0.10269536 0.29876938 0.44257802 0.08134754
0.5696507 -0.17090917 -0.12714306 -0.50323546 -0.27347985 0.39633423 0.21592379 -0.43670782
0.15325801 0.41449717 0.091010176 -0.07081516 0.15019971 0.017386325 -0.0926923 0.17289512

rnn.weight_hh_l0 f4 [128, 128]
00000000: 3e66 2e3e 06ca 693d 10f6 7f3e c2a6 023c
00000010: cd7a d83c 6419 0d3d 1a21 dcbe aa7e 393e
00000020: a34c 023e e8be 0c3d d5b1 b7bd 363d 853e
00000030: 2f41 25bc 3994 353e 1127 e33d 9dc3 a23c
00000040: 1105 19be e066 a33e c84a ac3d b329 47be
00000050: 977f a6be 60ad 7bbd 2264 1cbd 1706 363e
00000060: b220 933d 09c4 153e 8972 bcbe 184c f13d
00000070: 8a9b 6b3d 9848 0c3e 28b1 18bd ebca 953e
00000080: 7ef6 db3e 41c7 19bd dcc1 6b3e 40c0 07bd
00000090: 5298 da3d 613b 8d3e 5bd5 503c da4c 293e
000000a0: 66ce bbbd 3d9a d8bd 9f1f f2be c0a6 15be
000000b0: 2aee 523d 823e 9fbb e323 87bd f7dd dabe
000000c0: 2c03 8c3d ad22 bebc 545c e8bd a5e1 e0bc
000000d0: 75ee 293e 7372 89bd a420 dbbd ef22 fb3e
000000e0: 5ef9 cf3e fe4c 8c3d 66bb 5cbe 0855 073e
000000f0: 1b6f 4fbd 7641 d83d 612e ac3e 8c21 ffbd
00000100: 317d 38bd d803 11bc e0b5 c8bd 9fb0 463e
00000110: 177b 2ebc 5db3 8cbc 0fd0 4fbd 53a2 30bd
00000120: a211 0b3e 88b8 e03d 5f7f 043c f3b7 f9bd
00000130: bd1c d5bd 69e5 da3d d2e0 5a3e 633d b43e
00000140: 573c dcbd d651 f8bd 1b80 d9be 993b dc3d
00000150: 3abf cfbd abda 933e de64 0ebe f57f 9ebe
00000160: ca29 dcbe a0c8 56bd 71b5 55bd bcae 043c
00000170: c1f9 ca3d 40b3 30be 3983 bc3d 96b2 f5bd
00000180: c7b8 d2bd c7cc cf3d d6b7 b73d e223 fe3b
00000190: a87e b1bd b14c 1b3d e5bf eabd 3197 38bd
000001a0: 5332 673b b62a 95be 8811 dabd 6b59 af3e
000001b0: 0caa eabd 9154 b03d 57ef b6bd e195 6abb
000001c0: 305f 203e 00f6 f53c 1639 41ba 648b fb3d
000001d0: e811 e23e 653a 49bc 4b0b 6c3e 711c f6bc
000001e0: 6716 28be f42e 8f3d 0afe 63be c0af b33c
000001f0: d39a c8bd 3de1 7bbd 649f 82be b436 b3bd
00000200: bd51 973c 1e6a b0be eeb8 613e 8299 87be
00000210: d9bf dd3e c35c da3d 4ed3 823e d590 01be
00000220: 4770 443e 3bba 18be 2e4a c03d e500 e0be
00000230: 72cb 21bc 819d 803e 5f18 203e 42c5 bebc
00000240: 5955 743e d438 3fbd 632f 83be 6c81 413d
00000250: fd6e bcbe 7194 47bd d8ff f4bb 5ab0 c03d
00000260: 3de4 803e 799b 64bc e2ce 98bd 912d 5d3d
00000270: 60e3 f339 3409 ff3b 0e4e 703c 6b37 0b3f
00000280: 9527 ff3e 2ad4 27be cc89 913e 0a07 1b3f
00000290: 4830 e4bd 8965 83bd c0dd 6cbd 399f 96bd
000002a0: 5c97 9e3d 34d2 2fbe 7b4a 42be f244 d73e
000002b0: 2c40 b13e 1a89 1ebe 60a0 573e e413 a43e
000002c0: cd2a 18bd 9748 803c e737 cbbc 0440 4bbd
000002d0: 523f e43d 7c90 363d 8907 6ebd 2999 1d3f
000002e0: 0a94 97bd c8cc 8c3e 3003 483e ec56 a3be
000002f0: 5616 923e 00bd 47bd d985 be3d 0975 693d
00000300: 721c 90be 12d9 193e 71a6 4b3d f543 513e
00000310: 3249 09bf f60a 303d 90c4 94be c5d1 8a3d
00000320: 78d9 b43d 71ad 973d 6aa4 8fbe d256 16be
00000330: 72b4 3fbd b9e0 623b b20b 123d 4e86 f53d
00000340: 8862 0d3e f9a2 8ebd 32c7 68be 583c d0bd
00000350: 8c88 763e c636 013e d5a7 67be 5784 e33e
00000360: 1b83 e3be a0d6 54be ed6c 073e 323b a93d
00000370: 761d 063c e358 0f3e ed37 063e 73dd e83d
00000380: a499 803d 8a1c 87be 9d3e c8bd 39f2 d53d
00000390: 06ab 643e 5f9b 3ebe 02b8 50be ce95 5b3e
000003a0: dcd9 b43d cbe1 9bbe 9e56 d6be 751a 7e3d
000003b0: 1654 3a3e 461e 11bd 3b9b 48be 9043 093e
000003c0: 6d9a 74be acd7 9dbe 28f6 6d3e 000b 5dbd
000003d0: 442f 7a3e 6243 7fbd c677 4cbd 1323 42be
000003e0: b786 a13d 98ab 92bb da93 c53e df34 b93d
000003f0: 8686 fe3d ca65 a53d bec5 193d 1980 61bd
0.1703119 0.05707743 0.24996209 0.0079743285 0.026425743 0.034448043 -0.42994004 0.18114725
0.12724547 0.03436175 -0.08969466 0.26023263 -0.010086342 0.17732324 0.11091436 0.019868666
-0.14943339 0.31914425 0.08412701 -0.194495 -0.32519218 -0.06144464 -0.03818143 0.1777576
0.071839705 0.14625563 -0.36806133 0.11782092 0.05752138 0.13699567 -0.037278324 0.29256377
0.42961496 -0.03754354 0.2302317 -0.03314233 0.10673584 0.27584365 0.01274618 0.16533223
-0.09170227 -0.105762936 -0.4728975 -0.14614391 0.051496662 -0.0048597464 -0.06598642 -0.4274747
0.068365425 -0.023209894 -0.11345735 -0.027451346 0.1659487 -0.067112826 -0.10699585 0.4905009
0.4061994 0.068506226 -0.21555862 0.1321603 -0.050643068 0.10559361 0.33629134 -0.124575704
-0.045041267 -0.008851014 -0.09800315 0.19403313 -0.010649464 -0.01717537 -0.05073553 -0.043123554
0.13580945 0.109726965 0.008087008 -0.12193289 -0.10405872 0.10688288 0.21374825 0.35203084
-0.107536964 -0.12124984 -0.4248055 0.10753555 -0.101438954 0.28877768 -0.13905665 -0.30956998
-0.43000633 -0.052437425 -0.05217499 0.008098301 0.09910918 -0.17255878 0.09204716 -0.11996953
-0.1028915 0.1014648 0.08970611 0.0077557424 -0.08666736 0.037914935 -0.11462382 -0.045066062
0.0035277798 -0.29134148 -0.10647875 0.34247908 -0.11458215 0.0860988 -0.08932369 -0.0035794901
0.15661311 0.030024529 -0.0007370872 0.12282446 0.44154286 -0.012281989 0.23051183 -0.030042859
-0.16414796 0.069913775 -0.22264877 0.02193439 -0.097951554 -0.0614941 -0.2551223 -0.08750668
0.018471593 -0.3445596 0.22043201 -0.26484305 0.4331043 0.10662224 0.25551838 -0.12652905
0.19183455 -0.14914791 0.09389149 -0.43750682 -0.009875165 0.25120166 0.15634297 -0.02328742
0.23860683 -0.046685055 -0.2562209 0.047242567 -0.36803427 -0.04872555 -0.007476788 0.094086364
0.25174132 -0.013953083 -0.07461335 0.053998534 0.0004651798 0.0077830795 0.014667047 0.54381436
0.49834886 -0.16389528 0.28425443 0.60557616 -0.111420214 -0.06415851 -0.057828665 -0.07354588
0.07743713 -0.1717003 -0.18973725 0.4204479 0.34619272 -0.15481988 0.21057272 0.32046425
-0.037150193 0.015659614 -0.02480693 -0.049621597 0.1114489 0.044571385 -0.058112655 0.6156183
-0.07401283 0.27499986 0.19532466 -0.31902254 0.28532666 -0.04876423 0.09302873 0.05699638
-0.28146702 0.15024212 0.049719278 0.2043608 -0.5362731 0.042979203 -0.29056215 0.067782916
0.08830541 0.07406128 -0.28055125 -0.14681557 -0.046802945 0.0034618808 0.035655685 0.11988507
0.13807118 -0.06964678 -0.22732237 -0.1016776 0.24075526 0.1261855 -0.22622617 0.44436905
-0.44435963 -0.20784998 0.13225146 0.08263244 0.008185735 0.13998751 0.13107271 0.11370363
0.062793046 -0.2638896 -0.097775675 0.10446591 0.22330865 -0.18613957 -0.20382693 0.21443865
0.08830616 -0.30445704 -0.4186296 0.06203695 0.18196139 -0.03542926 -0.19590466 0.1340468
-0.23887034 -0.30828607 0.23238432 -0.05396557 0.24432093 -0.06232012 -0.049918912 -0.18958692
0.07887023 -0.004476022 0.38589364 0.090432875 0.12428002 0.08076055 0.037542097 -0.055053804

rnn.bias_ih_l0 f4 [128]
00000000: 5e4e bc3d 8985 aabd 8716 04be 2bbf 13be
00000010: 7bdb 353d 9576 0cbd 54c8 2c3d aac7 de3d
00000020: 3a5e 033e a18a 193e 44e0 7dbd 61f0 d63d
00000030: 6846 3dbd 7ca3 37bd dae4 013e 5ee5 2abd
00000040: 884a 623d 927c 04be 9aa5 503c b663 11be
00000050: b189 debd 3645 f23d 7d58 debb 94d5 073e
00000060: e617 4b3b e729 fd3d db59 25be f127 bb3d
00000070: 9c32 df3d f374 60bd bc78 ff3c 7984 14be
00000080: 8bc1 d73d f1b1 6ebc 8227 71bd 36a9 203d
00000090: f65e 143d 9b0d ab3d 5546 51bd 4cd0 f93d
000000a0: 0b92 8fbd 4574 2cbe 1a2f a2ba c544 b1bd
000000b0: 5cf0 d2bd 3596 05be 31c5 01be 4a76 503b
000000c0: 38aa 78bd 022e 0cbe 9424 f6bd 4f13 bc3d
000000d0: f6e2 dabc bb14 0abe d792 4b3e 1e0e a93d
000000e0: 1486 a13d 67b7 643d 303b c6bd 7d2a c0bc
000000f0: 303a 6bbd e994 dc3d 0f4c 253c fa29 25be
00000100: db75 eabd 441c 8a3d 2fc0 0e3e 00d4 be3d
00000110: 3f4f 22bd 9a05 17be c65f 573c 4a14 06be
00000120: 8bba 063d 087b 2fbd dc2b 08bc 2512 bdbd
00000130: 5222 323d bf5b 87bd 0239 8ebc ffb5 e43c
00000140: 2a95 133d 0d2b c5bd 46ff a93c 9a27 223e
00000150: af65 053e f2b9 443d 9edc abbc 8ec2 093d
00000160: 2007 1e3d 988e 24be 0d03 2ebe c8f5 19be
00000170: 92ec 1e3e 2b70 9c3d 65d4 0f3e 9ec9 e53c
00000180: c4c8 24bd 2f39 ec3d 6652 d23d f954 0d3e
00000190: 73ba 17bd 8ab9 30bd 6329 99bd 2428 893b
000001a0: 6fe8 e9bd d68c ca3d 1cd3 a5bd a675 093e
000001b0: ec42 19be 72a3 ecbd 7d78 c73d aaae 3b3e
000001c0: 8b07 853d ec82 0a3a d3b8 1ebe 5140 583d
000001d0: d6fe 1a3d 2c6a acbc a5ec 8fbd 7094 1e3e
000001e0: fc80 87bd 1160 033e 06a2 093e f21f c13d
000001f0: 6507 22be bfb2 0fbe e72e d93d dcb4 1e3e
0.09194635 -0.08326251 -0.12899218 -0.14428394 0.044398766 -0.034292776 0.042183235 0.10877927
0.12828913 0.14994289 -0.061981454 0.104950674 -0.046209723 -0.044833645 0.12684956 -0.041722648
0.05524686 -0.12938145 0.012734795 -0.14198193 -0.10866106 0.11829607 -0.006785451 0.13265067
0.0030989586 0.12361508 -0.16147558 0.091384776 0.10898325 -0.05479903 0.0311855 -0.1450366
0.10534962 -0.014568792 -0.05887557 0.039223872 0.036223374 0.083522044 -0.051092464 0.121979326
-0.07010277 -0.16841228 -0.0012373657 -0.08655695 -0.10299751 -0.1304558 -0.12672879 0.0031808787
-0.06070921 -0.13689426 -0.120186955 0.0918337 -0.026719552 -0.1348447 0.19880234 0.08254646
0.078869015 0.05583897 -0.09679258 -0.02345776 -0.05742854 0.1077059 0.010088935 -0.16129294
-0.114482604 0.067436725 0.139405 0.093177795 -0.039626356 -0.1474823 0.013145393 -0.13093677
0.032892745 -0.04284194 -0.008311238 -0.092319764 0.04348976 -0.06609296 -0.017361168 0.027918814
0.036030926 -0.09627352 0.020751607 0.1583542 0.1302707 0.048028894 -0.020979222 0.033632807
0.038581014 -0.1607002 -0.16993351 -0.15035164 0.15519932 0.07638582 0.14045866 0.02805024
-0.040230528 0.115343444 0.102696225 0.13801946 -0.037043046 -0.043145694 -0.07478597 0.0041856933
-0.11421286 0.098901436 -0.080969065 0.13423786 -0.14966935 -0.11554612 0.09739778 0.18328348
0.06495579 0.0005283791 -0.15500192 0.052795712 0.037840687 -0.02104672 -0.07027558 0.15486312
-0.06616399 0.12829615 0.13440713 0.09429921 -0.15823133 -0.1403303 0.10604649 0.1549868

rnn.bias_hh_l0 f4 [128]
00000000: 68ad d03d 42d3 12be 40bb 77bd 2c9a 02be
00000010: 8309 233e 5986 d1bc 6538 95bd 77f3 0d3e
00000020: 56d9 413d 9473 caba 78be d9bd a426 fd3d
00000030: c3de 2bbe 895b 6e3b 4251 203e a033 c4bc
00000040: 7f1d 403e de35 5fbe bc46 c6b9 806f 50bd
00000050: 0ecf 4abd ae89 fd3d 7bbe ec3d 9f26 193e
00000060: 4db2 083e a350 143d b88d 2cbe da92 213e
00000070: 4542 d33d 5f8f 9a3d 50e6 f7bd 5471 a4bd
00000080: f320 ad3d 2490 73bd 1c15 c03d bc4d 1ebd
00000090: ed80 d63d ba33 023e f2ff 2cbe c77d fc3d
000000a0: 66d2 483d 9d54 4abd 778f eebc 1da5 6b3c
000000b0: a07e f7bd 6ad6 d9bc f5f3 05be 85e2 123e
000000c0: 2b93 f6bd 4cfa a1bd 7ec4 aebd e42e 9b3c
000000d0: 0a3c 123d 9cef d1bd 1a1a 4b3e c832 5cbb
000000e0: ce45 0e3e f501 313d 6338 ffbc a7fc 7f3d
000000f0: 8cfb 2139 49d8 b43d 5666 4e3d 2119 b0bd
00000100: 46f7 3bbe fc25 903d dcdd b23d 8389 6fbd
00000110: 84c0 d9bd fb8e 2fbe 4ac3 9abd b1ad 89bb
00000120: cfa4 113e 54de b53d 5d35 1a3d 4520 15bd
00000130: 4d83 263e c767 0abe b217 013e 25a6 c7bb
00000140: 9050 35bc 2e20 d7bd 0e12 4e3d ff92 ff3d
00000150: 0dfa 483c 8714 cf3c ee13 f03d 52be 8a3c
00000160: 1aed 4c3d 775e 4ebe 6559 10bd 6862 31be
00000170: 8b0e f03d d629 9abc e26a 253e 5bf6 77bd
00000180: 490d 1dbe 16b8 d83d b566 1c3e 8ad0 273e
00000190: 309d 063e b963 38bd 11dd 29be cd5a ffbd
000001a0: 3941 30be b0ea 843d 3cd2 b7bd 14b5 0f3e
000001b0: 6dd8 e6bd 5260 1ebd e03b 863d d056 463d
000001c0: 99a5 19bd e016 47bc a0a9 98bd e94c 2c3e
000001d0: 5290 93bc 1d4d 0bbe 514f d5bc 1170 8d3d
000001e0: f73e b0bb 3855 323e 570e 5d3d 4278 6d3d
000001f0: 2681 ebbd 3b47 3fbd 1ec4 043e deef eb3c
0.101893246 -0.14338401 -0.06048131 -0.12754124 0.15921597 -0.025576757 -0.07286147 0.13862406
0.04732641 -0.0015445822 -0.10632032 0.12360886 -0.16784196 0.0036370477 0.15655997 -0.023950398
0.18761252 -0.21797892 -0.00037818204 -0.050887585 -0.04951387 0.12379776 0.11559769 0.14956139
0.13349266 0.036209714 -0.16850936 0.15778676 0.10315374 0.07546877 -0.121044755 -0.08029428
0.0845355 -0.059463635 0.09379026 -0.038648352 0.104738094 0.12715045 -0.1689451 0.123286776
0.049028777 -0.0493971 -0.029121144 0.014382628 -0.12084699 -0.026591498 -0.13081343 0.14344223
-0.12039789 -0.079090685 -0.08533572 0.018943258 0.03570179 -0.1025078 0.19834176 -0.0033599604
0.13893816 0.043214757 -0.031154817 0.062496807 0.00015447865 0.088303156 0.050390564 -0.08598543
-0.18356046 0.07038495 0.087337226 -0.05848075 -0.106324226 -0.17144386 -0.0755678 -0.004201614
0.14223026 0.08880296 0.037648547 -0.036407728 0.16261025 -0.1351615 0.12606695 -0.006092804
-0.011066571 -0.10504185 0.050310187 0.12479209 0.012266648 0.025278343 0.11722551 0.016936455
0.050030805 -0.20153223 -0.035241503 -0.17322695 0.11721524 -0.018818777 0.16154054 -0.060537677
-0.15337099 0.105819866 0.15273555 0.16388145 0.131459 -0.045016978 -0.16588236 -0.12468491
-0.1721238 0.064900756 -0.08975646 0.1403392 -0.11271749 -0.038666077 0.06554389 0.048422635
-0.03751144 -0.01215145 -0.074542284 0.16826214 -0.018013153 -0.13603635 -0.026038798 0.069061406
-0.0053785997 0.17415321 0.053968754 0.057976015 -0.114992425 -0.04669879 0.12965438 0.028800901

emb.weight f4 [82, 32]
00000000: 07b1 6bbf 2d76 2abf 1fac b93f b780 da3e
00000010: 4a45 76bf a3d8 11bf c429 fcbe 7e04 253f
00000020: bf72 f83e 9379 64bc 7303 6d3f b32e 133d
00000030: 71eb 96bf 8cec 113f 188f d7bf 45a9 17c0
00000040: 0cf7 d3bf d66e 573f 992a 46bf 86a7 ce3e
00000050: 14e8 763e b19e a83e d76c 84be 37a9 b83f
00000060: 3bc1 b73f 0d0e f43f 3d9d 1f3f b6ba f2bd
00000070: 259e 5b3f f11f 863f 91f4 37bf 0118 ff3e
00000080: 169c 8cbf 8111 b43f c695 49bf a1bc 843f
00000090: 610e 96bf a084 8dbf b0ef 14bf 6bf6 c63f
000000a0: e210 2fbf 2a91 b63f 503e 0fbf 0646 ac3f
000000b0: bce1 8c3f 5f41 893f 2edc b9be de27 3ebf
000000c0: 7f0b 113f 1a45 8fbf ed5e 99bc ab87 b13e
000000d0: 78ac b2bf dc16 ac3e 8a0e 5a3f 652f 0dbf
000000e0: 3a4d 1640 83b9 b1bf 3703 623d 7133 38be
000000f0: 2c91 43c0 4f65 afbd 2f09 41bf 17cc 62bf
00000100: 6065 93bf 7352 b63d b3a6 813f a6dd 2cbf
00000110: c295 ae3f 108d 923f 3bb8 9ebf 8f4d bc3f
00000120: 58bd f6bf a882 92be 693e 41bf 7277 dc3f
00000130: d2c2 af3f 3f33 a33f fa75 00c0 3383 c83f
00000140: f510 29bf fc52 07c0 9fef e83f feb7 95bf
00000150: 8958 1dbf e418 cb3f cb18 f33f d9ff f43e
00000160: 16ba 37be d75f febe 1dc8 89bf 9778 5f40
00000170: 3668 3fbf 4ca5 a1bf 0fd0 82bf f74d a7bc
00000180: 8a7b 1a3f 9089 8bbf 3c33 403f fb84 32bf
00000190: 8438 5cbf 3db9 77be 5a11 f53f ea3d b4bf
000001a0: b411 81bf cc55 dfbf 3a1d 8abe 64e9 c4bf
000001b0: 3c71 e63d fb6a ef3d bf50 d93f c6eb 1dbf
000001c0: 4b8c 813f ad1d a1bf 677e 983e c012 583f
000001d0: a799 bebe 3625 4b3e 59a9 a7bf 3dc4 2bbe
000001e0: 22e9 2e3f 11a6 2140 e222 db3f a5b8 36bf
000001f0: 4966 82be 8ab7 48bf 4a55 c8be a926 5a3f
00000200: 0757 b83f 6ecd 02c0 0c81 2e3f bd47 fd3e
00000210: 96a4 0dbf 80b6 ea3e 11d7 0e40 6a20 65bc
00000220: a805 333f 9fef b9be 0e59 40bf 34bd 7abf
00000230: 5f9e 9dbf e3a0 96bd 3113 5c3f 189d 163f
00000240: 3bb9 de3d 137a e83e 9332 50bf 796b 8bbf
00000250: 6e67 0f3f 8935 d5bf 51b9 e9bd 331b cf3f
00000260: 475c 913f c24c aabe 69a6 553e d8c7 63be
00000270: 0d92 de3f 0854 383f 09cf 70bf 78ce 80bf
00000280: fb9e 1b3f 91ab 093f e7a2 80bd d465 2840
00000290: 38bf 693e 9bef 3bbf 911f 6fbf 1d69 b8bf
000002a0: 3fa8 b43e 60af 643e 204c 95bf 871f bcbe
000002b0: 6006 91bf 3e7e da3f 012b bb3f cabe 8fbe
000002c0: c50d 0740 12cc c03f e40a 69be e754 f9bd
000002d0: c8a6 a0bf 35ad 90bf f756 e83e 0318 1bbf
000002e0: 5bb5 9c3f 940f 80bf b3ec d43f 444b e43e
000002f0: 2dfe e0bd 91eb 9a3e 3456 ee3f 2398 853e
00000300: 23fe 263f e152 95bf 5916 043e 53d6 adbe
00000310: 0e72 aabf 9901 d7bf f0a3 aebd 8ec9 f03e
00000320: 1f53 d0bd 68f9 4b3f d9b2 863f 4baf c93f
00000330: 10ca 39bf 5d68 70bd ddff 42bf d202 02c0
00000340: 983a 38bf 711a 133f 47c8 cfbe b397 f43e
00000350: fcc4 163f c582 ae3f 3bb1 d03b f833 083f
00000360: b2bc 7f3f 2b6a 8f3f 2ef1 39c0 7181 bc3f
00000370: 85be 6abd 5519 293f 5a69 aa3e c831 6dbf
00000380: e1a3 26bf 0eab dcbe 2d22 0840 e4ae aabf
00000390: 63fb e7bf 5a32 28c0 861f a03f 7602 4ebf
000003a0: a3df da3e ca82 d63f 1ff7 373e 37c9 d13f
000003b0: cc46 a63f 6b69 30bf 5ec7 3ec0 6fcb 333f
000003c0: d187 5bbf 817f a43f 51e4 d43d 2384 2fbf
000003d0: 8e01 d6be 4dd0 37bd b871 ebbd cf73 833f
000003e0: 9e9e 56bf da48 733f 674b 31bf c3b8 0cc0
000003f0: 092a 963e 4ce6 adbf 012c 8b3d b7e6 a03f
-0.92067 -0.6658657 1.4505652 0.42676327 -0.96199477 -0.56971186 -0.49250615 0.6445998
0.48525044 -0.013945001 0.9258339 0.035933208 -1.1790601 0.57001567 -1.6840544 -2.3697064
-1.6559768 0.841535 -0.7740875 0.40362185 0.24111968 0.32933572 -0.25864288 1.442664
1.4355844 1.9066788 0.623493 -0.118520185 0.85788184 1.0478498 -0.71857554 0.49823
-1.0985134 1.4067842 -0.7874416 1.0370065 -1.1723138 -1.1056099 -0.58178234 1.5543951
-0.68385136 1.426305 -0.55954456 1.345887 1.1006389 1.0723075 -0.36300796 -0.7427958
0.56658167 -1.1192963 -0.018722022 0.3467382 -1.3958883 0.3361119 0.85178435 -0.55150443
2.3484635 -1.3884739 0.055178847 -0.17988373 -3.0557356 -0.08564245 -0.7540464 -0.88592666
-1.1515312 0.08902445 1.0128998 -0.6752571 1.3639452 1.1449299 -1.2399973 1.4711169
-1.9276533 -0.28615308 -0.75485855 1.7223952 1.373133 1.2750014 -2.0072007 1.5665039
-0.660415 -2.11444 1.8198127 -1.1696775 -0.6146322 1.5866971 1.8991941 0.47851446
-0.1794208 -0.49682495 -1.0764195 3.4917352 -0.7476839 -1.262857 -1.0219744 -0.020422919
0.60344756 -1.0901356 0.7507818 -0.6973416 -0.86023736 -0.24191757 1.914592 -1.4081395
-1.0083528 -1.7448058 -0.26975423 -1.5383725 0.112520665 0.11690327 1.6977767 -0.61687887
1.0120939 -1.2587181 0.29783937 0.8440361 -0.37226602 0.19838414 -1.3098556 -0.16774078
0.6832448 2.525761 1.712002 -0.71375495 -0.25468662 -0.7840506 -0.3912757 0.8521524
1.4401559 -2.0437884 0.6816566 0.49468794 -0.55329263 0.4584236 2.2318766 -0.013984779
0.69930506 -0.3631563 -0.75135887 -0.9794495 -1.2313956 -0.073549055 0.85966784 0.58833456
0.10875174 0.45405635 -0.8132717 -1.0892173 0.56017196 -1.6656963 -0.114122994 1.6180176
1.1356286 -0.33261687 0.20864262 -0.22244203 1.7388321 0.7200322 -0.9406591 -1.0063009
0.6078946 0.53777415 -0.06281071 2.631215 0.2282685 -0.73412484 -0.9340754 -1.4407078
0.35284612 0.22332525 -1.1663857 -0.36742803 -1.133007 1.7069776 1.4622499 -0.28075248
2.1102154 1.5062277 -0.2275806 -0.12174397 -1.2550898 -1.1302859 0.4537885 -0.60583514
1.2242845 -1.0004754 1.6634735 0.44588673 -0.1098598 0.30257848 1.8620057 0.26092634
0.6523153 -1.1665918 0.1289915 -0.3395258 -1.3316057 -1.6797363 -0.08527362 0.47028774
-0.10172104 0.7967744 1.052333 1.575662 -0.7257395 -0.05869328 -0.76171666 -2.0314221
-0.71964407 0.5746222 -0.40582487 0.47771987 0.58894324 1.3633658 0.006368784 0.532043
0.998973 1.1204275 -2.9053454 1.4727002 -0.0573106 0.6605428 0.33283502 -0.92654085
-0.6509381 -0.43099254 2.127086 -1.3334622 -1.8123592 -2.6280732 1.250962 -0.80472505
0.42748746 1.6758664 0.17965363 1.6389531 1.2990355 -0.68910855 -2.9809184 0.7023229
-0.85754114 1.2851411 0.103951104 -0.68561 -0.4179806 -0.044876385 -0.114962995 1.0269717
-0.8383578 0.9503304 -0.6925568 -2.198777 0.29328945 -1.3585906 0.067955025 1.2570409

final.weight f4 [82, 128]
00000000: 64fc 9bbd ea63 2f3e d462 233e 7802 c4bc
00000010: 9aa5 92bd fb7a d63d a727 fa3d b302 20be
00000020: 37c0 8bbd c893 89bd 64c0 a43d 089b 07be
00000030: 4009 043e 3ea9 b33d 05f2 d8bd e443 653e
00000040: a384 18ba 011b 463d d25d 213d 92f8 203e
00000050: 70f0 f43d c03c 04bd a425 c9bd 7c2c 62be
00000060: e4c0 203c 2884 103e f90c 233e 85d7 3ebd
00000070: 127d b4bd 9263 04bd d413 823e 80ea abbc
00000080: cf5c 293d 1ded 18bd 6ed1 163e 07b7 f8bd
00000090: cbcd 05be 5df8 febd ea2b 9a3d 4fcd cfbc
000000a0: 7552 fd3d 6373 783e 79e2 413d 099b 943d
000000b0: e212 193e 2e3a ea3d f89a 9abc 2d07 15be
000000c0: 9bb1 b83d e70d 263d 1023 eb3d a1cb 40be
000000d0: 161e 363d 7369 e73d 0bfb 8abd c7be a6bc
000000e0: e97c 1dbe ee76 f1bd 75ae 033e 37ed 29be
000000f0: dfe6 7ebc f8de 2cbe 7760 a0bd 1e9b 3f3e
00000100: ee76 073e ed14 0b3e 560a 5abe 2197 32bd
00000110: 6a02 b1bc 8afa 1c3e bf55 efbd 83ba b23d
00000120: b89b 8c3c d020 01be 0dcd 203d a5d6 8d3d
00000130: b129 2fbe 1f77 333e bbb3 23be cc52 12be
00000140: 4a1d 6c3d 6a52 a23d 98f6 6dbe d068 4fbd
00000150: c98c c6bd b186 7c3d 514c 283e 728e acbd
00000160: 5ce4 97bd 4a13 863d f973 1f3e 09bc 9b3d
00000170: 30dc 9abd b946 91bc c2e0 9bbd a6d7 f93d
00000180: 1f3a 4c3e 711e 30be 072f 1fbe a14d 44be
00000190: 2b3e 2dbe d1d8 353c d432 3a3e 8e8b 3f3e
000001a0: f068 8d3d fa2a 43bd 937b 183d 899d eebd
000001b0: 701a 193e 306c 393d a87d 34be 32dc cc3c
000001c0: 7670 b639 6e8d bfbc 717a 183e ee7f 84bd
000001d0: 2774 ee3d aae2 463e 6a77 8c3d d0b5 64bd
000001e0: 7a68 593e 1f24 bcbd ad6d 2c3c 2595 1fbd
000001f0: 0f9a 473d 8b81 d83d 90b6 0e3e a4cf 4bbe
00000200: 64a8 063b da37 2d3e 6b8e 5d3e f51f 373c
00000210: edcc 97bd 02af 433e 777a 1d3e da99 81be
00000220: 10d8 39be 17e1 45be ab7a 613e 85c0 41be
00000230: f157 573d aceb df3d 0627 c2bd 5b96 b53d
00000240: a6b4 c2bd f35f ac3d 2566 ed3d 0f1c 263e
00000250: abe8 ff3c b51d d7bd 6f5a c7bd 09d8 07be
00000260: ffb4 703d e93d 193e 58c0 133e 637d bcbd
00000270: 568e 78be 7e86 15bd eb7d 563e fdd1 14bd
00000280: 20bb f43b 4b9b ecbd aab7 be3d f895 9ebd
00000290: 7e6e bfbd 92af d3bd 0bea 653e e053 10be
000002a0: ca15 6d3d a58d ad3d 6d83 12bd 75f5 ed3d
000002b0: 7580 4b3e e50a db3d 3c31 9cba abef 1bbe
000002c0: c6ee c23d de36 f93d 45a5 3a3e 06b0 08be
000002d0: 9b5a 1bbd a7fe 083d 801a d33b ca71 99bd
000002e0: be8e 12be 0fdc 17be 5b07 0f3e 2b15 54be
000002f0: 0008 573c 91ae 26be 794c e2bc 61bd 883d
00000300: 76ed a33d 4c07 0d3e 3588 2ebe ba92 14be
00000310: da10 12bc 8f12 4a3e d931 e3bb 5976 d03d
00000320: 6648 923c 8072 86bd 689d 6c3d 0e10 d73d
00000330: a015 00be d426 4e3e 8fe4 26be bcd9 3bbd
00000340: 9c0a 793d b54d 163e ba16 2dbe ad99 e9bd
00000350: 5635 f5bd 9db8 42bd ab5c 593e 82f2 19be
00000360: 24ba 4bbc cffe bf3d d9f6 e53d 3483 193d
00000370: f17c 32be de47 88bc 1cb7 f4bd a813 dbbc
00000380: f3c4 8e3d 8726 67be 8f0f e8bd 0003 81bd
00000390: 0507 23bd 39ba 073c 0035 8e3c f8b6 e23d
000003a0: 2243 673d 8f93 75bd 365e 11bd d1b9 ffbd
000003b0: 421e a93d e094 2e3e a934 12be 4862 993c
000003c0: c3e6 ab3d 6700 37bd d4fc 803c a72a 58be
000003d0: d62b 073e fed5 913d c814 cf3c e1d3 84bd
000003e0: acb9 033e d680 c0bd c05e 4cbc cd8a f1bd
000003f0: f9c6 303e b242 a83d d64b 063e e5b7 0dbe
-0.07616499 0.17127958 0.15955669 -0.023926958 -0.07160492 0.104726754 0.12214594 -0.1562603
-0.068237714 -0.0671764 0.08044508 -0.13242733 0.12894154 0.08772515 -0.105930366 0.2238918
-0.0005818104 0.048365597 0.039396115 0.15719822 0.11959922 -0.0322845 -0.098216325 -0.22087282
0.009811614 0.14112914 0.15922917 -0.046592254 -0.08812918 -0.03232152 0.25405753 -0.020985842
0.041348275 -0.037335504 0.14728329 -0.12144285 -0.13066785 -0.12449715 0.07527907 -0.025366453
0.12369243 0.24262767 0.04733512 0.07256133 0.1494861 0.11436878 -0.018872723 -0.14553519
0.090182506 0.040540602 0.11481297 -0.18827678 0.044462286 0.1129941 -0.06786164 -0.020354642
-0.1537968 -0.11790262 0.12859519 -0.16594397 -0.015557974 -0.16881931 -0.07830899 0.18711516
0.13228962 0.13582201 -0.21293005 -0.04360116 -0.021607596 0.15329948 -0.11686277 0.087269805
0.017164096 -0.12610173 0.03925805 0.06925706 -0.17105748 0.1752591 -0.1598653 -0.14289397
0.05764512 0.079258755 -0.232386 -0.050637066 -0.096948214 0.06165189 0.16435362 -0.08425607
-0.07416603 0.06546648 0.15571584 0.07604224 -0.07561529 -0.017733919 -0.076112285 0.12199335
0.19944046 -0.17199112 -0.15545283 -0.19170238 -0.16918246 0.011099056 0.18183452 0.1870558
0.06904781 -0.047648408 0.037227225 -0.11651141 0.14951491 0.04526919 -0.17626059 0.025007341
0.00034797535 -0.023382869 0.14890458 -0.06469713 0.11643248 0.19422403 0.06858714 -0.055837452
0.21231261 -0.09186577 0.010524196 -0.038960595 0.048730906 0.10571583 0.1393683 -0.19903427
0.0020547146 0.16915837 0.2163636 0.011177053 -0.07412133 0.19109729 0.15378748 -0.25312692
-0.18148828 -0.19324146 0.2201945 -0.18921097 0.0525741 0.10933623 -0.094800994 0.08866569
-0.09507112 0.08416738 0.11591748 0.16221641 0.031238874 -0.10503713 -0.09734046 -0.13266005
0.05876636 0.14965023 0.14428842 -0.09203603 -0.24273047 -0.036505215 0.20946471 -0.036333073
0.007468596 -0.11553057 0.09312375 -0.07743448 -0.093472466 -0.10336222 0.22452562 -0.14094496
0.057882108 0.08474282 -0.03576987 0.11619083 0.19873221 0.10695437 -0.0011916528 -0.15228145
0.09518199 0.12168668 0.18227108 -0.13348398 -0.037928205 0.03344598 0.006442368 -0.07492407
-0.14312264 -0.1483004 0.1396765 -0.207112 0.013124466 -0.1627753 -0.027624356 0.06676746
0.080042765 0.13772315 -0.17044146 -0.14509097 -0.008915151 0.19733642 -0.0069334325 0.10178823
0.017856788 -0.06564808 0.0577673 0.10501109 -0.1250825 0.20131999 -0.16298126 -0.045861945
0.060801134 0.1467808 -0.16903201 -0.114062645 -0.11973064 -0.047539342 0.21226756 -0.15033916
-0.012434516 0.09374773 0.11228723 0.03747864 -0.17430474 -0.016635831 -0.11948988 -0.026742771
0.06971159 -0.22573291 -0.113310926 -0.062994 -0.039801616 0.008284145 0.017359257 0.11070055
0.056460507 -0.059955176 -0.035490237 -0.124866135 0.08257724 0.17048979 -0.14277901 0.018723622
0.08393624 -0.044678118 0.015745558 -0.2111002 0.13200316 0.07120894 0.025278464 -0.06485725
0.12863797 -0.093995735 -0.012473762 -0.11794052 0.17263402 0.08215846 0.13114867 -0.13839681

final.bias f4 [82]
00000000: 692c cfbc 03aa 2cbe c51b 453d 6df2 11bd
00000010: 679e b3bd 6761 e2bc cb57 04be d5f4 3dbd
00000020: d0d3 4fbd 7983 39be cdd6 4bbe c59a 26be
00000030: 8599 37bd c70e fcbc d067 a9bc d0f3 2abe
00000040: 5642 0abd 2412 51bd 3419 98bd fb33 c3bd
00000050: 5157 a9bd d16e 1ebe 507a b7bd fc16 1ebe
00000060: b0c1 3abe fe85 d2bd bdc5 59bd 0f08 143d
00000070: 0fb7 8cbd 7fb4 00bb 5a00 29be 291a 16bd
00000080: 2862 25be 7fcd f5bd a522 00be edcd b2bd
00000090: 76cd bfbb d267 26bd 32f5 e9bd 8c8d 07be
000000a0: e10e cebc 2010 09bd 5b3f adbd 07c2 02be
000000b0: 02c2 42bd 7bb2 12be 46d1 a4bd efd7 91bc
000000c0: cd34 03be a5c8 22be 59db cebd 7598 0fbe
000000d0: 7ac5 0abe 97c3 20bd 90c4 763e 6519 de3c
000000e0: bd2d 143d 749c da3d fb79 853c 5a16 743d
000000f0: 876d 233e 2a0c de3d d6aa b13c 5991 d2bc
00000100: 2473 ad3d b13b f23c 8330 073e a90c d53c
00000110: cf60 163d 9614 47bd 8713 9ebd e705 af3d
00000120: d2cd b93d 79ec 363e 5c5a 74bd 41f0 0bbe
00000130: 0565 c33d 287e 01be 03b0 653d c5b9 33bc
00000140: d349 1abd b8ac ddbd
-0.025289731 -0.1686173 0.048122186 -0.035631586 -0.08770447 -0.027634336 -0.12924115 -0.04637607
-0.05073911 -0.18116559 -0.19906159 -0.16269977 -0.044824142 -0.030768765 -0.020679384 -0.1669457
-0.03375467 -0.05104269 -0.07426682 -0.09531399 -0.082686074 -0.1547196 -0.08958876 -0.15438455
-0.18237948 -0.10279463 -0.053167094 0.036140498 -0.06870853 -0.0019638834 -0.1650404 -0.036646042
-0.16150725 -0.12002086 -0.12513216 -0.087306835 -0.0058533503 -0.040626355 -0.114237204 -0.1323759
-0.02515358 -0.033462644 -0.0845935 -0.12769328 -0.0475483 -0.14325897 -0.08047728 -0.01780316
-0.1281311 -0.15896852 -0.10100431 -0.14023001 -0.13551894 -0.03924903 0.2409842 0.027111718
0.036176432 0.10674372 0.016293516 0.05959163 0.1595975 0.10842164 0.021687906 -0.025704073
0.08469227 0.029569479 0.132021 0.026007013 0.036713418 -0.048603617 -0.07718568 0.08546048
0.0907246 0.17863645 -0.059656486 -0.13665868 0.09540752 -0.12645781 0.05607606 -0.010969584
-0.03766806 -0.10823959
